lihongyi/hw1/weight.npy (npy, 1432 bytes, 1 tensors)

array f8 [163, 1]
00000000: 57d7 f939 c05f 3540 b926 0a7c 0bb6 0c40
00000010: 349a 235d 6541 1240 6597 5ec4 f74d 0140
00000020: 2ae5 d0c9 8057 1ac0 c239 7144 bcf1 40c0
00000030: b570 b758 9d1c 4040 4014 d08d 7df2 0b40
00000040: 0993 2b90 8f69 12c0 f8b3 ce19 4561 f0bf
00000050: bd05 d12d 0865 d9bf c560 1e06 605e bbbf
00000060: d970 9728 7e7a cc3f c434 2297 d707 b73f
00000070: 7f78 59f5 92cc c03f 5573 ffbe 8e1b 963f
00000080: c3c8 1c8c 2791 c3bf 44f1 80bd d13f a73f
00000090: a951 4e96 06ac e03f 18f3 1b48 e395 c43f
000000a0: 9c22 6104 4844 a0bf 99ac 3d60 9f52 8a3f
000000b0: a424 2eb8 aca2 c6bf f803 91bb 3ceb c53f
000000c0: 2d97 e9c0 d5ca c0bf 667e d051 ae00 a2bf
000000d0: 0700 cfcd becf b93f 29f4 7374 c714 d63f
000000e0: 54d0 988b 967c a43f 97a2 0603 250b 9a3f
000000f0: fd1b 7d5b 4024 e0bf f16e 58b5 60c6 d73f
00000100: ac46 eeae 5c15 eb3f e0b9 da8c 40fb e9bf
00000110: 7efe 634f 4e7c b4bf 439d 1ac9 e88c c33f
00000120: 6260 7496 5ef4 d03f 5ffc 1719 ea9d aabf
00000130: c7ee 3c99 9320 d0bf cd51 8c01 e1a7 d83f
00000140: 05d6 e396 db2c c53f 800b 6289 9e0f b4bf
00000150: 26fe 5c9f 7786 d2bf 6fda 55cd 16bc c63f
00000160: 89e8 212f f4a3 d43f 7f77 d62b e86f ddbf
00000170: f6cb f323 a2d9 a1bf 1e6e 384c d09d e2bf
00000180: 1b5e b3e5 8c78 b0bf def1 de28 8740 e4bf
00000190: 20ca e8af 2e4c b03f 85e1 bbb5 ec49 b53f
000001a0: 9a71 cdd0 777d dcbf 9542 fdbf f504 cebf
000001b0: d722 672f 4c92 ef3f fe03 c5fb 89f9 d03f
000001c0: 4091 f447 ec04 a23f 28c1 34e3 7ead d33f
000001d0: fab4 202f 24b4 babf a541 e354 619e b0bf
000001e0: 3d43 eaae 6909 cb3f 7e4c 8b5d dc1f cfbf
000001f0: 47a5 c876 f7cd c0bf 46b1 a932 8472 f13f
00000200: 92ec e9d9 885f a4bf 9b74 3dce 106d ed3f
00000210: d72f e4da ff3b eebf 460a 7275 e521 e0bf
00000220: d0a9 57e8 fccc e53f 5118 197e e884 f5bf
00000230: ded8 b37e 1127 d1bf 65a1 09e5 6a55 a63f
00000240: 25c6 adb4 d056 fe3f ea1f 1ff4 42e1 d5bf
00000250: 5681 51bc 7936 c83f 3d6a d793 adbd 913f
00000260: 5edd ea19 a71f d43f 281d 4834 22d0 d5bf
00000270: 554d 1d1b 3f83 df3f 16ad 7466 73cc b73f
00000280: 6947 3445 eadc dcbf f3ad c55a d297 f73f
00000290: 49ed 069b e611 9fbf ec35 3d1a 54be b33f
000002a0: 5bf7 a384 126d e43f 150c a899 9b62 e9bf
000002b0: 8fa9 bc53 8840 ec3f 9427 936a 6a84 0940
000002c0: a9ec 52d6 e006 17c0 03f5 77da 46b8 f93f
000002d0: 513d 1c2f 7e3a 2b40 1a0f 3366 2734 c33f
000002e0: 3ec9 f923 597e a8bf 99c6 f5ef 401d b0bf
000002f0: 0c97 741c 2539 9dbf ec31 fc24 ce4c d3bf
00000300: a7a4 ef91 285f da3f 7932 7faf 4958 b1bf
00000310: 7349 c532 2fda b9bf fe34 8a08 e8a0 c5bf
00000320: aa5f 4b42 4241 fa3f 9bfb aafd e558 fe3f
00000330: 1448 a7bc fd42 d93f 9303 74f8 68d9 12c0
00000340: ba53 e5cd deb5 1dc0 30cb 6328 91ca 1840
00000350: 10bd 9366 a351 0c40 54a5 8deb 9099 eebf
00000360: 5663 d00b 1cb3 f0bf 887b 893e 148b dfbf
00000370: 419c 45a3 2336 e43f 6675 4774 1f0d dfbf
00000380: fa80 7e0f a189 d03f 087c a627 9829 b83f
00000390: c4b8 997e a98d c0bf f1da efaf 2866 d8bf
000003a0: 0fb7 407d a6c1 d83f c5ab c771 9ade d93f
000003b0: f891 2e33 5209 d83f ddd5 6a6c 547d c73f
000003c0: f856 aacc 2b84 b4bf b4bb 0646 21da d3bf
000003d0: 9c36 ff0a 1b5a d9bf 2a5d 07f3 4670 d73f
000003e0: 23e6 dd72 7bf9 c63f 2777 735a 6420 d4bf
000003f0: a007 833f 0d6a cebf 389b 0d50 8e54 a43f
00000400: b899 b5b9 68c3 c13f ac74 16c0 5ca9 a3bf
00000410: f729 82cf f008 acbf 8209 38b1 dfe0 da3f
00000420: 6511 fcc7 3d8d dc3f eabe 3bde ba96 dbbf
00000430: 4ed4 f7f0 cc62 b6bf 5be8 c5df ff28 adbf
00000440: fc4b ed25 ad88 b2bf e9ea b44c bfa5 8cbf
00000450: 37f6 4aac 90fb c13f 3a9b 601b 995a cfbf
00000460: da06 d0c3 bc81 c73f 2db3 9977 6402 c5bf
00000470: b131 d9d9 a2f9 b2bf 04f5 739b 42de b8bf
00000480: 3421 211c 2f5c 943f e736 82f1 169b dcbf
00000490: ead6 6c77 37dc d0bf c74d dcd9 0393 c33f
000004a0: 3094 a373 70b4 b03f 64ed 3757 419e e63f
000004b0: 6eb4 f53c 9ded b83f 8def 36a1 e87b d5bf
000004c0: 5da9 1506 e4ff ccbf 79d6 294b 1e35 d3bf
000004d0: d305 c771 9aca bf3f aed2 27f2 cdce da3f
000004e0: f635 7465 ff1e d0bf beea 647b 3586 c0bf
000004f0: 4967 f064 24d7 e1bf d0af ce12 866e b63f
00000500: 0745 a001 b75d d33f 8312 5339 051a dbbf
00000510: 088d c804 e25a df3f
21.374026893135433 3.5888890925023955 4.563863234804149 2.1630702344290733 -6.585452226042699 -33.888557963643976 32.223551835604134 3.4934035376668646
-4.603086712512558 -1.023747540293014 -0.3967915007998178 -0.10690879964238593 0.22248818380365412 0.08996341171060168 0.13124310474353604 0.021589498908599698
-0.1528672632353559 0.04540877760197984 0.5209992347395672 0.1608242132278057 -0.03177094510517017 0.012852902531184806 -0.17683943741966346 0.17124137075919044
-0.13119003219179018 -0.035161445128548505 0.10082619213699227 0.34501825687749715 0.04001303152145455 0.02543313818901768 -0.5044252192391238 0.37148301801219846
0.8463576714149972 -0.8119204283773875 -0.08002175749060744 0.15273771113900567 0.26491512959319696 -0.05198604160613551 -0.2519883152451538 0.3852465167158499
0.165431450535536 -0.07836333135678153 -0.28945723116700817 0.17761502290860018 0.3225069484975696 -0.4599552562811979 -0.034863535774910234 -0.5817643631630209
-0.06433945281911983 -0.6328769491443003 0.06366245073949317 0.08315925061095271 -0.44515796080465864 -0.23452636599042323 0.9866085935437593 0.2652306517302917
0.035193809302912715 0.30746433437436105 -0.10431123877124895 -0.0649166900868808 0.2112247566297131 -0.24315981452545893 -0.1312856035231482 1.090458104993631
-0.03979137096481468 0.9195636776090795 -0.9448241496297624 -0.5041377347809621 0.6812729394853765 -1.344948284693164 -0.2680095422105192 0.043620434244817465
1.8961951310888108 -0.3418738731384098 0.1891624612353648 0.017325126789595514 0.3144319298839572 -0.34082846742281214 0.49238565109154325 0.09296342135774113
-0.4509835887739571 1.4745658441341873 -0.030341723644352645 0.07712293282130361 0.6383144941935187 -0.7932870865919336 0.8828775058257622 3.189656097999384
-5.756717060862834 1.6074894460610387 13.614243957707602 0.15002911081511955 -0.04783896030575584 -0.06294637545013372 -0.028538303243428806 -0.3015628205473877
0.41205801250050417 -0.06775341543761638 -0.10098547925489303 -0.16897297303186315 1.640932330095874 1.8967037114050302 0.3947138159102235 -4.712314493256502
-7.427607743379605 6.197819357958721 3.5398624433361263 -0.9562458611155003 -1.0437279187664976 -0.49286371333249024 0.6316087902931785 -0.48517595630058563
0.25840021622754217 0.09438467948938023 -0.1293231838384995 -0.3812352865347029 0.38681947929113475 0.40421162711453135 0.375568914396609 0.18351226133169876
-0.08014177080834972 -0.31018859709268587 -0.39612461160582213 0.36622785313871253 0.17948859318475838 -0.3144770510970027 -0.23761144257701705 0.03970761038981724
0.13877591197815575 -0.0384015068513944 -0.054755711870786365 0.4199752073910973 0.4461206868147854 -0.43107482626417826 -0.0874450767804131 -0.056953426424073604
-0.07239801574660015 -0.013988012817767142 0.1404896584771664 -0.24495233380113196 0.18364677010691005 -0.16413551177847677 -0.07412164515080268 -0.0971414212726423
0.019882904140360938 -0.44696591934994817 -0.2634409586201928 0.1529240430614733 0.06525328467576297 0.7068182662473359 0.09737570513034807 -0.33568778747189115
-0.22655916497326248 -0.3001170858400211 0.12418523099679328 0.418872343521154 -0.2518919459115233 -0.12909573102100141 -0.5575124713388756 0.08762395819820701
0.3025949016456057 -0.42346315954299757 0.4899220511162672
